data.pth (torch, 10986 bytes, 6 tensors)

l1.weight f4 [16, 87]
0.15099452 0.22885866 0.020458411 0.31348416 0.025248287 -0.20238365 0.40964052 -0.13238935
0.18070501 0.11063595 0.008925368 0.4085449 -0.087590866 0.387187 -0.1836862 0.2719242
0.35752797 0.25869566 0.30507615 -0.166975 -0.478711 0.006025639 0.009445177 0.13724428
-0.2075331 -0.10773029 -0.11261975 0.25795794 0.24191141 -0.27381885 0.24916519 0.33926612
-0.19887781 -0.10498807 0.47881085 -0.32867762 -0.23383357 0.35265747 0.3185098 -0.6240364
0.24632908 0.44868562 -0.1284371 -0.1406725 -0.42444798 0.008948379 -0.38643795 0.12428486
-0.12227987 -0.1211824 0.33748537 0.2373141 0.103011966 0.6426202 -0.0626639 0.07803138
0.112749256 0.14824891 0.26127964 -0.12343092 0.12187187 -0.07656469 0.31626025 -0.46254054
-0.018527446 -0.09738594 -0.304911 0.38660577 -0.040645983 -0.026341347 -0.04815047 -0.29805124
-0.16426848 0.328672 -0.18290791 0.26289693 0.52579165 -0.18755679 0.18098478 0.33063325
-0.02249917 -0.1486314 0.4669405 0.13800031 -0.24722739 0.250585 0.30012852 0.29476935
0.11081354 -0.15307939 0.4584201 -0.082719564 -0.20538713 0.3862387 0.20429541 -0.023699582
-0.0585749 -0.056523014 0.51064277 -0.2170892 0.2074196 -0.18718667 -0.09289433 0.27627695
-0.28913835 -0.46430987 0.15392384 0.4048196 -0.07637564 0.22971891 0.05313725 -0.13919911
-0.18301187 -0.06776144 -0.15701678 -0.00061645673 -0.4678635 0.22696349 0.4084503 -0.16181551
0.22377767 0.41098776 0.29998007 -0.4983682 0.472881 0.48679268 0.69996417 0.07154558
0.27576742 0.26212585 0.033247598 0.46519256 -0.024471544 -0.24513033 -0.015671013 0.21749483
0.24834524 0.22792193 0.00878828 -0.03894957 0.010058329 0.047663715 -0.18155424 0.22370802
-0.121975146 0.23944019 -0.1459905 -0.4985868 -0.08297238 0.29175976 0.52323866 0.16884781
-0.15442581 0.61579645 0.33727118 -0.124332346 -0.042272877 0.55889416 0.23458698 0.1630686
0.30980545 0.45848632 0.3821363 0.038986042 -0.13362603 -0.37858015 0.282061 -0.001096272
0.2804571 0.5052533 -0.0673221 0.2893243 -0.03577109 0.15941626 -0.25786605 0.18337896
0.13265356 0.48995945 -0.05791941 0.20056188 -0.4996195 0.14377299 0.0011049459 0.10685405
-0.091549255 0.48478845 -0.17561263 0.20527372 0.2748573 0.12610011 0.09579157 0.49180365
0.61901873 -0.1615907 -0.58009773 0.31414968 -0.18859397 0.18087906 0.1558657 -0.13992979
-0.078897014 0.04802909 0.2336514 0.62644535 0.14582695 0.32296464 -0.18347731 -0.22791977
0.16526096 -0.18227795 0.52868885 0.044333924 -0.014405325 -0.4291776 0.6327651 0.06716189
-0.16218098 -0.08949634 -0.45151907 0.3747371 0.3189791 0.403487 -0.043706838 -0.22759195
0.24648474 0.340731 -0.16603637 0.56797093 -0.1331216 0.38070136 0.090207025 0.2575924
0.22388181 0.21889143 0.7230737 -0.0030872223 0.32632777 -0.5542428 -0.06507034 -0.18214492
-0.57268673 0.14867702 -0.120527536 0.4102381 -0.31060025 -0.17591299 -0.341483 0.21238925
-0.28034988 0.24213304 0.63229734 0.15480614 -0.16494934 -0.035621695 0.311859 -0.30368093
00000000: 4f9e 1a3e ed59 6a3e 6698 a73c ff80 a03e
00000010: 7fd5 ce3c a93d 4fbe 67bc d13e 1391 07be
00000020: bc0a 393e 1a95 e23d b53b 123c cc2c d13e
00000030: d762 b3bd 603d c63e 3c18 3cbe a639 8b3e
00000040: e80d b73e c273 843e f132 9c3e 7ffb 2abe
00000050: 9c19 f5be b972 c53b f2bf 1a3c c489 0c3e
00000060: 8f83 54be b3a1 dcbd 2fa5 e6bd 1013 843e
00000070: a0b7 773e fc31 8cbe 2925 7f3e 4ab4 ad3e
00000080: a0a6 4bbe fc03 d7bd b226 f53e 6f48 a8be
00000090: 1172 6fbe 858f b43e b713 a33e d9c0 1fbf
000000a0: b13d 7c3e 1fba e53e 0485 03be 740c 10be
000000b0: 3f51 d9be 399c 123c 32db c5be 1089 fe3d
000000c0: de6d fabd 7a2e f8bd e2ca ac3e 7802 733e
000000d0: f0f7 d23d c282 243f ee55 80bd ebce 9f3d
000000e0: 15e9 e63d 90ce 173e 72c6 853e 5ac9 fcbd
000000f0: f597 f93d f3cd 9cbd ddec a13e 1dd2 ecbe
00000100: dfc6 97bc 4872 c7bd 4b1d 9cbe 31f1 c53e
00000110: 677c 26bd cfc9 d7bc 6d39 45bd 2c9a 98be
00000120: ff35 28be b247 a83e 364c 3bbe 6d9a 863e
00000130: 489a 063f e30e 40be 1354 393e c348 a93e
00000140: 2e50 b8bc d432 18be d312 ef3e f44f 0d3e
00000150: 2d29 7dbe ad4c 803e 72aa 993e 02ec 963e
00000160: 36f2 e23d d8c0 1cbe 0ab6 ea3e e068 a9bd
00000170: 0151 52be 14c1 c53e d132 513e a025 c2bc
00000180: 3cec 6fbd ad84 67bd 7cb9 023f a24c 5ebe
00000190: ce65 543e ddad 3fbe 623f bebd 2c74 8d3e
000001a0: f109 94be 06ba edbe 369e 1d3e 8444 cf3e
000001b0: d56a 9cbd 6f3b 6b3e 72a6 593d 368a 0ebe
000001c0: 7767 3bbe 83c6 8abd 02c9 20be b699 21ba
000001d0: ce8b efbe 1e69 683e 6620 d13e f7b2 25be
000001e0: f925 653e fd6c d23e fd96 993e 1e2a ffbe
000001f0: 751d f23e e43c f93e da30 333f 7d86 923d
00000200: 6331 8d3e 5c35 863e a22e 083d b82d ee3e
00000210: 8c78 c8bc 7203 7bbe 7f60 80bc f7b6 5e3e
00000220: 374e 7e3e 5e64 693e b8fc 0f3c 9689 1fbd
00000230: b1cb 243c 073b 433d 5be9 39be b713 653e
00000240: 1bce f9bd cf2f 753e 897e 15be c546 ffbe
00000250: 6ced a9bd 8961 953e f8f2 053f 71e6 2c3e
00000260: cd21 1ebe d6a4 1d3f cfae ac3e f5a1 febd
00000270: 5326 2dbd b013 0f3f 9237 703e 75fb 263e
00000280: d29e 9e3e b8be ea3e 5ea7 c33e d4af 1f3d
00000290: 43d5 08be 42d5 c1be 4d6a 903e c9b0 8fba
000002a0: 1398 8f3e 4858 013f 2be0 89bd 5122 943e
000002b0: b584 12bd 043e 233e 0507 84be b2c7 3b3e
000002c0: 56d6 073e f7db fa3e e73c 6dbd 1860 4d3e
000002d0: 21ce ffbe 3a39 133e d5d3 903a 4cd6 da3d
000002e0: 2d7e bbbd 3136 f83e ccd3 33be 4633 523e
000002f0: 19ba 8c3e 6320 013e 5f2e c43d b0cd fb3e
00000300: 0378 1e3f 0878 25be 4981 14bf 3ad8 a03e
00000310: c71e 41be 5c38 393e 429b 1f3e c149 0fbe
00000320: c294 a1bd 27ba 443d 5042 6f3e b95e 203f
00000330: a953 153e 9f5b a53e 7ae1 3bbe cd63 69be
00000340: 2b3a 293e 12a7 3abe 2758 073f 7d97 353d
00000350: 5004 6cbc 2bbd dbbe e5fc 213f 2c8c 893d
00000360: c512 26be db49 b7bd 822d e7be 8bdd bf3e
00000370: 3b51 a33e d995 ce3e f105 33bd dd0d 69be
00000380: 7f66 7c3e 4b74 ae3e 7005 2abe 8b66 113f
00000390: 0751 08be 4aeb c23e 76be b83d 27e3 833e
000003a0: 4641 653e 1325 603e 5c1b 393f ff52 4abb
000003b0: 6f14 a73e dbe2 0dbf 9943 85bd 3384 3abe
000003c0: 999b 12bf ca3e 183e 24d7 f6bd ba0a d23e
000003d0: ff06 9fbe 8922 34be dcd6 aebe 917c 593e
000003e0: 058a 8fbe b9f1 773e 3dde 213f 8085 1e3e
000003f0: 7be8 28be 0ee8 11bd fcab 9f3e 117c 9bbe

l1.bias f4 [16]
0.47868863 0.49861985 0.6160108 0.45238546 0.38081068 0.40738007 0.8172591 0.40428188
0.5459698 0.532206 0.34732744 0.43895167 0.56031585 0.66127217 0.36223534 0.4275061
00000000: ad16 f53e 1a4b ff3e e2b2 1d3f 119f e73e
00000010: 9ef9 c23e 1f94 d03e e437 513f 09fe ce3e
00000020: adc4 0b3f a73e 083f e7d4 b13e 46be e03e
00000030: dc70 0f3f 2249 293f e976 b93e 14e2 da3e

l2.weight f4 [16, 16]
0.52459073 0.54342276 0.49191505 -0.10752866 -0.18243507 -0.07355495 -0.21749419 0.9057136
0.79488534 0.8092485 -0.50944835 0.012676761 1.0091447 0.8353741 -0.58859056 -0.36753222
-0.87967974 0.78810054 -0.64616567 0.57596934 0.58722776 -0.09468445 0.62519175 -0.64991426
0.23671298 -0.0019000932 0.6764676 0.6354568 -0.61800325 0.4914591 0.9868334 0.7193204
0.5837345 0.5195276 0.2446503 -0.578041 -0.6559801 0.20551108 0.58534455 0.025118083
-1.1014793 -0.5125539 0.58503824 0.76979786 0.30702543 0.26720905 0.58461624 -0.46756315
-0.869216 0.31517658 0.065584585 0.23023054 0.32196614 -0.9081083 0.5853833 -1.137571
1.1814344 -0.8463085 0.02422025 0.73575556 0.03650645 0.61437505 -0.12217507 0.31272557
-0.1452969 -0.027153403 0.7828838 0.2761048 0.718771 -0.854793 0.42058074 -0.1302396
-0.19181706 -1.1171008 0.8967548 0.68092966 0.61536586 -0.77812386 0.29848 0.43231
1.0978438 0.47927427 0.54618466 -0.5631879 -1.071979 1.0215703 0.594651 0.7374981
-0.30868247 0.59808254 -0.1808367 0.34717852 -0.25629643 0.11746497 -0.5682417 -0.9142062
0.31095424 0.4511435 0.5575632 0.9067141 -0.3733102 -0.0642312 0.24649064 -0.3427303
1.0099037 1.1792957 -0.8016806 -0.7357847 -0.04742108 1.0326904 -0.04397588 0.54701835
-0.15296815 0.36579624 0.12004102 -0.7955834 -0.7489326 -0.7328203 0.62351096 0.5370119
-0.35010228 0.018119983 0.1412655 0.60697156 0.9605035 0.7234108 -0.15400676 -0.16458277
0.06288488 0.61103684 -0.61282116 -0.29565638 0.91824275 -0.8467826 0.17534022 0.74796754
-0.08491128 0.6297622 0.569128 0.67554694 1.0361997 0.5280915 0.59611094 0.47505477
-0.30502337 -0.8911766 0.9371607 0.8234075 1.1324097 0.29168853 0.25587553 0.42159677
0.5234239 -0.24452266 0.51682323 -0.20230313 0.4657139 -0.7554106 0.72132105 0.8542524
-0.47555187 0.061838888 0.14057662 -0.4388116 -1.0374075 0.14656432 0.6168932 -0.5521845
-0.30849102 -0.5172194 0.589411 0.43024057 0.0035560129 0.9019729 0.63674027 -0.118766636
-0.14338426 -1.0261356 0.14644627 0.5337955 0.25171837 0.7366531 0.75409573 0.18339755
-0.7683828 0.8719275 0.10570316 -0.1713531 -0.5485655 -0.52762574 0.4984241 0.5872548
0.6156965 -0.09246985 0.42863593 -0.6367991 -0.1236692 -0.110981986 0.7868149 0.6215724
-0.71988493 0.08854412 -0.17261933 0.8185082 0.8367804 -0.24985133 -0.2956675 0.16153017
0.2534684 0.5898888 0.35087922 0.75073427 0.7005749 0.8276218 -0.09440513 0.33154327
0.9582695 0.6007364 -0.41881198 -0.3065917 -1.0725379 0.67414963 -0.60011303 -0.7943965
0.650038 -0.8054555 1.1519514 0.6105851 -1.0101733 0.2076429 0.31983855 -0.8621933
0.262487 0.29961744 -0.19801782 -0.0037864363 0.40820023 -0.04312619 -0.27369976 0.38932395
-0.0035983324 -0.24356341 -0.016483366 -0.22911751 -0.16410524 -0.20312092 -0.13116908 0.021976411
-0.16295305 0.15301222 -0.05417934 -0.23560819 0.18346602 -0.05669263 -0.1790258 -0.17248133
00000000: 944b 063f c11d 0b3f 4adc fb3e fc37 dcbd
00000010: 42d0 3abe faa3 96bd ccb6 5ebe d9dc 673f
00000020: 9b7d 4b3f e92a 4f3f 356b 02bf 30b2 4f3c
00000030: a72b 813f 14db 553f dfad 16bf 2f2d bcbe
00000040: b132 61bf f5c0 493f 1d6b 25bf ba72 133f
00000050: 8f54 163f ece9 c1bd 910c 203f c860 26bf
00000060: e364 723e 8c0c f9ba fb2c 2d3f 4cad 223f
00000070: 7635 1ebf 87a0 fb3e 1da1 7c3f 6225 383f
00000080: a06f 153f c3ff 043f 9c85 7a3e 7ffa 13bf
00000090: 50ee 27bf 7f71 523e 24d9 153f 70c4 cd3c
000000a0: 46fd 8cbf bb36 03bf 11c5 153f 7911 453f
000000b0: 7032 9d3e a0cf 883e 69a9 153f 7064 efbe
000000c0: f184 5ebf d35e a13e 3651 863d 8ec1 6b3e
000000d0: bfd8 a43e c979 68bf aedb 153f ed9b 91bf
000000e0: 3e39 973f ada7 58bf 8c69 c63c 7a5a 3c3f
000000f0: ca87 153d af47 1d3f ec36 fabd 911d a03e
00000100: b6c8 14be d070 debc 136b 483f 9c5d 8d3e
00000110: 6001 383f b7d3 5abf 5c56 d73e 885d 05be
00000120: b16b 44be 29fd 8ebf b991 653f 6851 2e3f
00000130: 9e88 1d3f 2033 47bf 5fd2 983e bc57 dd3e
00000140: 2586 8c3f 7063 f53e c2d2 0b3f 152d 10bf
00000150: 9c36 89bf d1c2 823f 0c3b 183f adcc 3c3f
00000160: a10b 9ebe f01b 193f 422d 39be 62c1 b13e
00000170: 4939 83be 7991 f03d 4a78 11bf 6b09 6abf
00000180: 6535 9f3e 48fc e63e 76bc 0e3f 6a1e 683f
00000190: 8422 bfbe a68b 83bd 0b68 7c3e 597a afbe
000001a0: 8644 813f 29f3 963f f13a 4dbf 635c 3cbf
000001b0: 9b3c 42bd 332f 843f 0d20 34bd 6509 0c3f
000001c0: afa3 1cbe a549 bb3e 11d8 f53d 5bab 4bbf
000001d0: 0cba 3fbf 1c9a 3bbf 6a9e 1f3f 9d79 093f
000001e0: 9b40 b3be 5c70 943c e7a7 103e 7d62 1b3f
000001f0: 8fe3 753f 7331 393f f3b3 1dbe 6388 28be
00000200: cac9 803d e96c 1c3f d9e1 1cbf 4660 97be
00000210: f511 6b3f bfc6 58bf 638c 333e cd7a 3f3f
00000220: f7e5 adbd 1838 213f 5fb2 113f a5f0 2c3f
00000230: 31a2 843f 0131 073f ba9a 183f 613a f33e
00000240: 062c 9cbe 2624 64bf c3e9 6f3f d5ca 523f
00000250: cdf2 903f 3358 953e 1e02 833e 88db d73e
00000260: 1cff 053f 2664 7abe 874e 043f 8d28 4fbe
00000270: 0d72 ee3e 9762 41bf 7fa8 383f 49b0 5a3f
00000280: 897b f3be c64a 7d3d 51f3 0f3e eaab e0be
00000290: c5c9 84bf f514 163e b6ec 1d3f f75b 0dbf
000002a0: 89f2 9dbe 7e68 04bf a4e3 163f 7e48 dc3e
000002b0: ff0b 693b b2e7 663f 6901 233f ec3b f3bd
000002c0: 53d3 12be 6958 83bf 03f6 153e d2a6 083f
000002d0: 3be1 803e 4c95 3c3f 6b0c 413f 91cc 3b3e
000002e0: bcb4 44bf a436 5f3f e67a d83d 3077 2fbe
000002f0: ca6e 0cbf 7b12 07bf 7231 ff3e 5556 163f
00000300: 499e 1d3f d560 bdbd 2b76 db3e 4405 23bf
00000310: 4746 fdbd 864a e3bd b46c 493f 5e1f 1f3f
00000320: 614a 38bf 9f56 b53d 1fc3 30be c189 513f
00000330: 3e37 563f 07d9 7fbe bb61 97be 2a68 253e
00000340: 9cc6 813e f402 173f 71a6 b33e 1f30 403f
00000350: e058 333f 06df 533f 7a57 c1bd 0ac0 a93e
00000360: 2651 753f dcc9 193f 866e d6be 96f9 9cbe
00000370: ec48 89bf 1295 2c3f 02a1 19bf 925d 4bbf
00000380: e468 263f 5532 4ebf 2573 933f 4e4f 1c3f
00000390: 5c4d 81bf 57a0 543e e1c1 a33e b3b8 5cbf
000003a0: b264 863e 7567 993e 2fc5 4abe dc25 78bb
000003b0: 9fff d03e 16a5 30bd 6022 8cbe 7855 c73e
000003c0: 00d2 6bbb b068 79be 2008 87bc c89d 6abe
000003d0: 340b 28be eefe 4fbe 3051 06be e007 b43c
000003e0: 2add 26be 3caf 1c3e 28eb 5dbd 4643 71be
000003f0: 84de 3b3e 8836 68bd 8a52 37be f29e 30be

l2.bias f4 [16]
0.38745353 0.16927887 0.045458607 0.2336758 0.36720368 0.1909217 0.3640237 0.35775813
0.09917305 0.25830817 0.29354694 0.20833454 0.37514716 0.18097651 0.35833317 -0.046632975
00000000: 4f60 c63e 7157 2d3e ce32 3a3d b548 6f3e
00000010: 1f02 bc3e fa80 433e 5061 ba3e 132c b73e
00000020: 3d1b cb3d f840 843e c94b 963e a655 553e
00000030: 4a13 c03e e851 393e 7277 b73e 3802 3fbd

l3.weight f4 [11, 16]
-0.893909 0.23351423 -0.35170126 -1.295738 0.15174901 -1.2184395 -0.14367922 -0.6050963
0.34211242 0.38041303 -0.08156177 0.6965404 -0.05451993 -1.2901704 -0.5487372 -0.021520853
-0.64806384 -0.1393344 0.31083456 -0.4788025 0.09003586 0.08198867 -0.53056955 -0.21125235
-0.8240735 0.118919306 0.3416209 0.15044154 -0.19052808 -0.8270943 0.21937893 -0.16817659
-0.11241449 -0.4163164 -0.6827773 0.67467266 0.2062344 -1.3105409 -0.082183585 0.18182324
-0.15810512 0.18309185 0.0031286157 -0.17923854 0.18428716 -1.2106019 0.4012023 0.20221952
0.52373123 -0.6338689 -1.5043974 -0.07744948 -0.7997273 0.27835578 0.67160255 -0.7851929
-0.89752555 -0.9106667 -0.24671063 -0.8687776 -1.0072857 0.8207072 0.27098873 -0.24086621
0.47321954 -0.8595954 -0.3772333 -0.8594423 -0.99637854 0.4672179 0.25212675 0.54122514
0.31656912 -1.2674958 -0.22317827 -0.27940175 0.49348652 -0.53176695 -0.33216998 0.03270033
-0.8469518 0.55604523 -0.80934775 0.9408606 0.41682667 -1.0948489 -0.20436567 -0.7942635
0.16212551 0.2658605 -0.10006165 -0.07692932 -1.2659405 -0.1035803 -1.1806617 0.017889857
-0.2941056 -0.15526101 -1.3353633 -1.1755056 -0.40546915 -0.31705552 0.47190204 -0.6858487
-0.7455471 0.28118208 -0.65668815 0.5639751 -0.28989276 -0.28894204 0.6962696 0.053630143
0.12104368 -0.83630276 -0.531686 -0.47664094 -0.76599455 0.47171494 -1.1613967 -0.030046355
-0.7736526 0.061814923 -0.40389135 0.4786117 0.39098552 0.47528473 -0.99828297 0.15025502
-0.46183482 0.42100462 0.45121446 0.42947614 -0.061177403 -0.6481362 -0.68170506 0.6225179
0.2051668 -0.77800745 0.4930363 -0.24923152 0.04859778 -1.1483625 -1.0763499 0.18823382
0.5937331 0.091526866 -1.216433 -0.8915525 -0.77521026 -1.1847016 0.4860807 -0.043784477
0.52522004 0.30407965 -0.2989038 -0.41600153 -0.9159837 0.11380748 -1.2060144 0.07960722
0.2616137 -0.93420345 0.17571098 -1.0946584 0.50998574 -0.13461632 -1.2841568 0.21145989
0.29012856 0.098897204 -0.7490835 -0.8735626 0.6448465 -1.08295 -0.53802943 -0.16636238
00000000: 38d7 64bf 5b1e 6f3e 3012 b4be beda a5bf
00000010: 1864 1b3e d3f5 9bbf a520 13be 97e7 1abf
00000020: 5c29 af3e 7fc5 c23e db09 a7bd 7950 323f
00000030: 4a50 5fbd 4e24 a5bf 0b7a 0cbf 804c b0bc
00000040: 83e7 25bf adad 0ebe b525 9f3e 9a25 f5be
00000050: b964 b83d ade9 a73d 68d3 07bf 8952 58be
00000060: 7bf6 52bf f78b f33d efe8 ae3e 590d 1a3e
00000070: cb19 43be 74bc 53bf dfa4 603e 7c36 2cbe
00000080: 9139 e6bd 6c27 d5be 7eca 2ebf 59b7 2c3f
00000090: 1c2f 533e cebf a7bf de4f a8bd df2f 3a3e
000000a0: 4fe6 21be 6e7c 3b3e 7609 4d3b 4f8a 37be
000000b0: c6b5 3c3e 01f5 9abf 636a cd3e a212 4f3e
000000c0: 4013 063f 3b45 22bf 1890 c0bf d59d 9ebd
000000d0: eeba 4cbf a684 8e3e 25ee 2b3f 6702 49bf
000000e0: 3cc4 65bf 7421 69bf b6a1 7cbe 3568 5ebf
000000f0: bdee 80bf de19 523f 09bf 8a3e a2a5 76be
00000100: d549 f23e 720e 5cbf b924 c1be 6904 5cbf
00000110: aa12 7fbf 2f37 ef3e c216 813e bb8d 0a3f
00000120: 5915 a23e 4d3d a2bf d888 64be bf0d 8fbe
00000130: 44aa fc3e e121 08bf 2f12 aabe c8f0 053d
00000140: d5d1 58bf fb58 0e3f 6a31 4fbf 3edc 703f
00000150: 4e6a d53e 0224 8cbf 3c45 51be da54 4bbf
00000160: 3b04 263e de1e 883e 1fed ccbd 1f8d 9dbd
00000170: 570a a2bf e921 d4bd ec1f 97bf c08d 923c
00000180: 0295 96be befc 1ebe 2fed aabf f876 96bf
00000190: a799 cfbe 1a55 a2be 259d f13e c893 2fbf
000001a0: 2ddc 3ebf 19f7 8f3e b71c 28bf ac60 103f
000001b0: d36c 94be 36f0 93be b93e 323f 48ab 5b3d
000001c0: c0e5 f73d f017 56bf 931c 08bf 480a f4be
000001d0: 3818 44bf 9f84 f13e a6a8 94bf c623 f6bc
000001e0: 190e 46bf a531 7d3d d9ca cebe 980c f53e
000001f0: 412f c83e 8558 f33e 798f 7fbf 74dc 193e
00000200: 9d75 ecbe eb8d d73e 9505 e73e 4ce4 db3e
00000210: 2895 7abd 41ec 25bf 3984 2ebf 555d 1f3f
00000220: 3f17 523e 7f2b 47bf 416f fc3e 8c36 7fbe
00000230: 770e 473d 8bfd 92bf d5c5 89bf 5ec0 403e
00000240: e4fe 173f 7072 bb3d 14b4 9bbf c93c 64bf
00000250: 2e74 46bf 4da4 97bf 92df f83e 5a57 33bd
00000260: d274 063f 54b0 9b3e eb09 99be 27fe d4be
00000270: e87d 6abf e513 e93d ae5e 9abf 1c09 a33d
00000280: 3bf2 853e f527 6fbf 94ed 333e c41d 8cbf
00000290: 6d8e 023f dcd8 09be 405f a4bf f188 583e
000002a0: bb8b 943e 9e8a ca3d f0c3 3fbf cca1 5fbf
000002b0: a914 253f 1b9e 8abf 4cbc 09bf e65a 2abe

l3.bias f4 [11]
-0.23417972 0.0033453004 -0.018292239 0.04445744 0.23887667 -0.22890842 0.0906549 0.01329516
0.03953458 0.13339578 0.27253163
00000000: cfcc 6fbe d43c 5b3b 9bd9 95bc 0119 363d
00000010: 169c 743e f866 6abe 47a9 b93d f1d3 593c
00000020: 03ef 213d e798 083e 4489 8b3e
